…
up_k: 3
use_xyz: True
voxel_max: 80000
voxel_size: 0.04
warmup: linear
warmup_iters: 1500
warmup_ratio: 1e-06
weight: None
weight_decay: 0.01
window_size: 4
workers: 16
world_size: 1
[2021-10-09 18:44:30,336 INFO test.py line 56 46792] => creating model ...
[2021-10-09 18:44:30,337 INFO test.py line 57 46792] Classes: 13
[2021-10-09 18:44:35,577 INFO test.py line 224 46792] Swin(
  (item_layer): ModuleList(
    (0): KPConvSimpleBlock(
      (kpconv): KPConvLayer(InF: 6, OutF: 48, kernel_pts: 15, radius: 0.06, KP_influence: linear, Add_one: False)
      (bn): FastBatchNorm1d(
        (batch_norm): BatchNorm1d(48, eps=1e-05, momentum=0.02, affine=True, track_running_stats=True)
      )
      (activation): LeakyReLU(negative_slope=0.2)
    )
  )
  (layers): ModuleList(
    (0): BasicLayer(
      (blocks): ModuleList(
        (0): SwinTransformerBlock(
          (norm1): LayerNorm((48,), eps=1e-05, elementwise_affine=True)
          (attn): WindowAttention(
            (qkv): Linear(in_features=48, out_features=144, bias=True)
            (attn_drop): Dropout(p=0.0, inplace=True)
            (proj): Linear(in_features=48, out_features=48, bias=True)
            (proj_drop): Dropout(p=0.0, inplace=True)
            (softmax): Softmax(dim=-1)
          )
          (drop_path): Identity()
          (norm2): LayerNorm((48,), eps=1e-05, elementwise_affine=True)
          (mlp): Mlp(
            (fc1): Linear(in_features=48, out_features=192, bias=True)
            (act): GELU()
            (fc2): Linear(in_features=192, out_features=48, bias=True)
            (drop): Dropout(p=0.0, inplace=True)
          )
        )
        (1): SwinTransformerBlock(
          (norm1): LayerNorm((48,), eps=1e-05, elementwise_affine=True)
          (attn): WindowAttention(
            (qkv): Linear(in_features=48, out_features=144, bias=True)
            (attn_drop): Dropout(p=0.0, inplace=True)
            (proj): Linear(in_features=48, out_features=48, bias=True)
            (proj_drop): Dropout(p=0.0, inplace=True)
            (softmax): Softmax(dim=-1)
          )
          (drop_path): DropPath()
          (norm2): LayerNorm((48,), eps=1e-05, elementwise_affine=True)
          (mlp): Mlp(
            (fc1): Linear(in_features=48, out_features=192, bias=True)
            (act): GELU()
            (fc2): Linear(in_features=192, out_features=48, bias=True)
            (drop): Dropout(p=0.0, inplace=True)
          )
        )
      )
      (downsample): TransitionDown(
        (norm): LayerNorm((48,), eps=1e-05, elementwise_affine=True)
        (linear): Linear(in_features=48, out_features=96, bias=False)
        (pool): MaxPool1d(kernel_size=16, stride=16, padding=0, dilation=1, ceil_mode=False)
      )
    )
    (1): BasicLayer(
      (blocks): ModuleList(
        (0): SwinTransformerBlock(
          (norm1): LayerNorm((96,), eps=1e-05, elementwise_affine=True)
          (attn): WindowAttention(
            (qkv): Linear(in_features=96, out_features=288, bias=True)
            (attn_drop): Dropout(p=0.0, inplace=True)
            (proj): Linear(in_features=96, out_features=96, bias=True)
            (proj_drop): Dropout(p=0.0, inplace=True)
            (softmax): Softmax(dim=-1)
          )
          (drop_path): DropPath()
          (norm2): LayerNorm((96,), eps=1e-05, elementwise_affine=True)
          (mlp): Mlp(
            (fc1): Linear(in_features=96, out_features=384, bias=True)
            (act): GELU()
            (fc2): Linear(in_features=384, out_features=96, bias=True)
            (drop): Dropout(p=0.0, inplace=True)
          )
        )
        (1): SwinTransformerBlock(
          (norm1): LayerNorm((96,), eps=1e-05, elementwise_affine=True)
          (attn): WindowAttention(
            (qkv): Linear(in_features=96, out_features=288, bias=True)
            (attn_drop): Dropout(p=0.0, inplace=True)
            (proj): Linear(in_features=96, out_features=96, bias=True)
            (proj_drop): Dropout(p=0.0, inplace=True)
            (softmax): Softmax(dim=-1)
          )
          (drop_path): DropPath()
          (norm2): LayerNorm((96,), eps=1e-05, elementwise_affine=True)
          (mlp): Mlp(
            (fc1): Linear(in_features=96, out_features=384, bias=True)
            (act): GELU()
            (fc2): Linear(in_features=384, out_features=96, bias=True)
            (drop): Dropout(p=0.0, inplace=True)
          )
        )
      )
      (downsample): TransitionDown(
        (norm): LayerNorm((96,), eps=1e-05, elementwise_affine=True)
        (linear): Linear(in_features=96, out_features=192, bias=False)
        (pool): MaxPool1d(kernel_size=16, stride=16, padding=0, dilation=1, ceil_mode=False)
      )
    )
    (2): BasicLayer(
      (blocks): ModuleList(
        (0): SwinTransformerBlock(
          (norm1): LayerNorm((192,), eps=1e-05, elementwise_affine=True)
          (attn): WindowAttention(
            (qkv): Linear(in_features=192, out_features=576, bias=True)
            (attn_drop): Dropout(p=0.0, inplace=True)
            (proj): Linear(in_features=192, out_features=192, bias=True)
            (proj_drop): Dropout(p=0.0, inplace=True)
            (softmax): Softmax(dim=-1)
          )
          (drop_path): DropPath()
          (norm2): LayerNorm((192,), eps=1e-05, elementwise_affine=True)
          (mlp): Mlp(
            (fc1): Linear(in_features=192, out_features=768, bias=True)
            (act): GELU()
            (fc2): Linear(in_features=768, out_features=192, bias=True)
            (drop): Dropout(p=0.0, inplace=True)
          )
        )
        (1): SwinTransformerBlock(
          (norm1): LayerNorm((192,), eps=1e-05, elementwise_affine=True)
          (attn): WindowAttention(
            (qkv): Linear(in_features=192, out_features=576, bias=True)
            (attn_drop): Dropout(p=0.0, inplace=True)
            (proj): Linear(in_features=192, out_features=192, bias=True)
            (proj_drop): Dropout(p=0.0, inplace=True)
            (softmax): Softmax(dim=-1)
          )
          (drop_path): DropPath()
          (norm2): LayerNorm((192,), eps=1e-05, elementwise_affine=True)
          (mlp): Mlp(
            (fc1): Linear(in_features=192, out_features=768, bias=True)
            (act): GELU()
            (fc2): Linear(in_features=768, out_features=192, bias=True)
            (drop): Dropout(p=0.0, inplace=True)
          )
        )
        (2): SwinTransformerBlock(
          (norm1): LayerNorm((192,), eps=1e-05, elementwise_affine=True)
          (attn): WindowAttention(
            (qkv): Linear(in_features=192, out_features=576, bias=True)
            (attn_drop): Dropout(p=0.0, inplace=True)
            (proj): Linear(in_features=192, out_features=192, bias=True)
            (proj_drop): Dropout(p=0.0, inplace=True)
            (softmax): Softmax(dim=-1)
          )
          (drop_path): DropPath()
          (norm2): LayerNorm((192,), eps=1e-05, elementwise_affine=True)
          (mlp): Mlp(
            (fc1): Linear(in_features=192, out_features=768, bias=True)
            (act): GELU()
            (fc2): Linear(in_features=768, out_features=192, bias=True)
            (drop): Dropout(p=0.0, inplace=True)
          )
        )
        (3): SwinTransformerBlock(
          (norm1): LayerNorm((192,), eps=1e-05, elementwise_affine=True)
          (attn): WindowAttention(
            (qkv): Linear(in_features=192, out_features=576, bias=True)
            (attn_drop): Dropout(p=0.0, inplace=True)
            (proj): Linear(in_features=192, out_features=192, bias=True)
            (proj_drop): Dropout(p=0.0, inplace=True)
            (softmax): Softmax(dim=-1)
          )
          (drop_path): DropPath()
          (norm2): LayerNorm((192,), eps=1e-05, elementwise_affine=True)
          (mlp): Mlp(
            (fc1): Linear(in_features=192, out_features=768, bias=True)
            (act): GELU()
            (fc2): Linear(in_features=768, out_features=192, bias=True)
            (drop): Dropout(p=0.0, inplace=True)
          )
        )
        (4): SwinTransformerBlock(
          (norm1): LayerNorm((192,), eps=1e-05, elementwise_affine=True)
          (attn): WindowAttention(
            (qkv): Linear(in_features=192, out_features=576, bias=True)
            (attn_drop): Dropout(p=0.0, inplace=True)
            (proj): Linear(in_features=192, out_features=192, bias=True)
            (proj_drop): Dropout(p=0.0, inplace=True)
            (softmax): Softmax(dim=-1)
          )
          (drop_path): DropPath()
          (norm2): LayerNorm((192,), eps=1e-05, elementwise_affine=True)
          (mlp): Mlp(
            (fc1): Linear(in_features=192, out_features=768, bias=True)
            (act): GELU()
            (fc2): Linear(in_features=768, out_features=192, bias=True)
            (drop): Dropout(p=0.0, inplace=True)
          )
        )
        (5): SwinTransformerBlock(
          (norm1): LayerNorm((192,), eps=1e-05, elementwise_affine=True)
          (attn): WindowAttention(
            (qkv): Linear(in_features=192, out_features=576, bias=True)
            (attn_drop): Dropout(p=0.0, inplace=True)
            (proj): Linear(in_features=192, out_features=192, bias=True)
            (proj_drop): Dropout(p=0.0, inplace=True)
            (softmax): Softmax(dim=-1)
          )
          (drop_path): DropPath()
          (norm2): LayerNorm((192,), eps=1e-05, elementwise_affine=True)
          (mlp): Mlp(
            (fc1): Linear(in_features=192, out_features=768, bias=True)
            (act): GELU()
            (fc2): Linear(in_features=768, out_features=192, bias=True)
            (drop): Dropout(p=0.0, inplace=True)
          )
        )
      )
      (downsample): TransitionDown(
        (norm): LayerNorm((192,), eps=1e-05, elementwise_affine=True)
        (linear): Linear(in_features=192, out_features=384, bias=False)
        (pool): MaxPool1d(kernel_size=16, stride=16, padding=0, dilation=1, ceil_mode=False)
      )
    )
    (3): BasicLayer(
      (blocks): ModuleList(
        (0): SwinTransformerBlock(
          (norm1): LayerNorm((384,), eps=1e-05, elementwise_affine=True)
          (attn): WindowAttention(
            (qkv): Linear(in_features=384, out_features=1152, bias=True)
            (attn_drop): Dropout(p=0.0, inplace=True)
            (proj): Linear(in_features=384, out_features=384, bias=True)
            (proj_drop): Dropout(p=0.0, inplace=True)
            (softmax): Softmax(dim=-1)
          )
          (drop_path): DropPath()
          (norm2): LayerNorm((384,), eps=1e-05, elementwise_affine=True)
          (mlp): Mlp(
            (fc1): Linear(in_features=384, out_features=1536, bias=True)
            (act): GELU()
            (fc2): Linear(in_features=1536, out_features=384, bias=True)
            (drop): Dropout(p=0.0, inplace=True)
          )
        )
        (1): SwinTransformerBlock(
          (norm1): LayerNorm((384,), eps=1e-05, elementwise_affine=True)
          (attn): WindowAttention(
            (qkv): Linear(in_features=384, out_features=1152, bias=True)
            (attn_drop): Dropout(p=0.0, inplace=True)
            (proj): Linear(in_features=384, out_features=384, bias=True)
            (proj_drop): Dropout(p=0.0, inplace=True)
            (softmax): Softmax(dim=-1)
          )
          (drop_path): DropPath()
          (norm2): LayerNorm((384,), eps=1e-05, elementwise_affine=True)
          (mlp): Mlp(
            (fc1): Linear(in_features=384, out_features=1536, bias=True)
            (act): GELU()
            (fc2): Linear(in_features=1536, out_features=384, bias=True)
            (drop): Dropout(p=0.0, inplace=True)
          )
        )
      )
    )
  )
  (upsamples): ModuleList(
    (0): Upsample(
      (linear1): Sequential(
        (0): LayerNorm((192,), eps=1e-05, elementwise_affine=True)
        (1): Linear(in_features=192, out_features=192, bias=True)
      )
      (linear2): Sequential(
        (0): LayerNorm((384,), eps=1e-05, elementwise_affine=True)
        (1): Linear(in_features=384, out_features=192, bias=True)
      )
    )
    (1): Upsample(
      (linear1): Sequential(
        (0): LayerNorm((96,), eps=1e-05, elementwise_affine=True)
        (1): Linear(in_features=96, out_features=96, bias=True)
      )
      (linear2): Sequential(
        (0): LayerNorm((192,), eps=1e-05, elementwise_affine=True)
        (1): Linear(in_features=192, out_features=96, bias=True)
      )
    )
    (2): Upsample(
      (linear1): Sequential(
        (0): LayerNorm((48,), eps=1e-05, elementwise_affine=True)
        (1): Linear(in_features=48, out_features=48, bias=True)
      )
      (linear2): Sequential(
        (0): LayerNorm((96,), eps=1e-05, elementwise_affine=True)
        (1): Linear(in_features=96, out_features=48, bias=True)
      )
    )
  )
  (classifier): Sequential(
    (0): Linear(in_features=48, out_features=48, bias=True)
    (1): BatchNorm1d(48, eps=1e-05, momentum=0.1, affine=True, track_running_stats=True)
    (2): ReLU(inplace=True)
    (3): Linear(in_features=48, out_features=13, bias=True)
  )
)
[2021-10-09 18:44:35,581 INFO test.py line 228 46792] => loading checkpoint '/mnt/home/xinlai/3dsemseg_s3dis/pointseg27/runs/run_swin_fpsdownsample_item_kpconv+swin_adamw0.006_wd0.01_aug_all_sigma0.005_clip0.02_b2262_optv2_rpe111_swin_sparser_swin_down8/model/model_best.pth'
[2021-10-09 18:44:35,912 INFO test.py line 236 46792] => loaded checkpoint '/mnt/home/xinlai/3dsemseg_s3dis/pointseg27/runs/run_swin_fpsdownsample_item_kpconv+swin_adamw0.006_wd0.01_aug_all_sigma0.005_clip0.02_b2262_optv2_rpe111_swin_sparser_swin_down8/model/model_best.pth' (epoch 53)
…
